Total samples found: 9019

Total classes found: 13
    - car_crash
    - conversation
    - engine_idling
    - gun_shot
    - jambret
    - maling
    - rain
    - rampok
    - road_traffic
    - scream
    - thunderstorm
    - tolong
    - wind


==========================================================================================
Layer (type:depth-idx)                   Output Shape              Param #
==========================================================================================
LSTMNetwork                              [1, 13]                   --
├─MelSpectrogram: 1-1                    [1, 128, 173]             --
│    └─Spectrogram: 2-1                  [1, 1025, 173]            --
│    └─MelScale: 2-2                     [1, 128, 173]             --
├─AmplitudeToDB: 1-2                     [1, 128, 173]             --
├─MFCC: 1-3                              [1, 40, 173]              --
│    └─MelSpectrogram: 2-3               [1, 128, 173]             --
│    │    └─Spectrogram: 3-1             [1, 1025, 173]            --
│    │    └─MelScale: 3-2                [1, 128, 173]             --
│    └─AmplitudeToDB: 2-4                [1, 128, 173]             --
├─LayerNorm: 1-4                         [1, 173, 128]             256
├─LayerNorm: 1-5                         [1, 173, 40]              80
├─LSTM: 1-6                              [1, 173, 512]             790,528
├─LSTM: 1-7                              [1, 173, 512]             610,304
├─Linear: 1-8                            [1, 512]                  524,800
├─BatchNorm1d: 1-9                       [1, 512]                  1,024
├─ReLU: 1-10                             [1, 512]                  --
├─Dropout: 1-11                          [1, 512]                  --
├─Linear: 1-12                           [1, 128]                  65,664
├─BatchNorm1d: 1-13                      [1, 128]                  256
├─ReLU: 1-14                             [1, 128]                  --
├─Linear: 1-15                           [1, 64]                   8,256
├─BatchNorm1d: 1-16                      [1, 64]                   128
├─ReLU: 1-17                             [1, 64]                   --
├─Linear: 1-18                           [1, 13]                   845
==========================================================================================
Total params: 2,002,141
Trainable params: 2,002,141
Non-trainable params: 0
Total mult-adds (Units.MEGABYTES): 242.95
==========================================================================================
Input size (MB): 0.18
Forward/backward pass size (MB): 1.66
Params size (MB): 8.01
Estimated Total Size (MB): 9.85
…
